…
nb_conv, nb_conv)))\nconvout2 = Activation('relu')\nmodel.add(convout2)\nmodel.add(MaxPooling2D(pool_size=(nb_pool, nb_pool)))\nmodel.add(Dropout(0.5))\n\nmodel.add(Flatten())\nmodel.add(Dense(128))\nmodel.add(Activation('relu'))\nmodel.add(Dropout(0.5))\nmodel.add(Dense(nb_classes))\nmodel.add(Activation('softmax'))\n```\n\nThis model has following 12 layers -\n```\n_________________________________________________________________\nLayer (type)                 Output Shape              Param #   \n=================================================================\nconv2d_1 (Conv2D)            (None, 32, 198, 198)      320       \n_________________________________________________________________\nactivation_1 (Activation)    (None, 32, 198, 198)      0         \n_________________________________________________________________\nconv2d_2 (Conv2D)            (None, 32, 196, 196)      9248      \n_________________________________________________________________\nactivation_2 (Activation)    (None, 32, 196, 196)      0         \n_________________________________________________________________\nmax_pooling2d_1 (MaxPooling2 (None, 32, 98, 98)        0         \n_________________________________________________________________\ndropout_1 (Dropout)          (None, 32, 98, 98)        0         \n_________________________________________________________________\nflatten_1 (Flatten)          (None, 307328)            0         \n_________________________________________________________________\ndense_1 (Dense)              (None, 128)               39338112  \n_________________________________________________________________\nactivation_3 (Activation)    (None, 128)               0         \n_________________________________________________________________\ndropout_2 (Dropout)          (None, 128)               0         \n_________________________________________________________________\ndense_2 (Dense)              (None, 5)                 645       \n_________________________________________________________________\nactivation_4 (Activation)    (None, 5)                 0         \n=================================================================\n```\nTotal params: 39,348,325.0\nTrainable params: 39,348,325.0\n\n# Training\nIn version 1.0 of this project I had used 1204 images only for training. Predictions probability was ok but not satisfying. So in version 2.0 I increased the training image set to 4015 images i.e. 803 image samples per class. Also added an add
…
